weights/baseline_fp16.onnx (onnx, 139463 bytes, 5 tensors)

conv1.weight f2 [64, 3, 9, 9]
00000000: ea26 7332 31a3 002d 96b1 872b 7fab ccac
00000010: fc29 feae b6b0 c7a6 be9e 0225 68ae 7731
00000020: 1bac fb2b b72c cb9b 4630 fea9 cca5 4f30
00000030: 33a7 beae cf32 0dac 3523 14af 47b1 a0b0
00000040: d12c 1c30 4b2b ad28 a5b0 cd2a c530 0eac
00000050: 452d 571c 8e1d dca3 2e27 e0aa 59ae 2b1e
00000060: 28a8 78aa 47ad 4428 8622 e0a4 d22d e5af
00000070: 39a8 9eab ec28 88aa 132f d4ac b925 07a9
00000080: 7a2e 4bae bd2a 5aaf 3ba8 2a2a d421 d126
00000090: de27 9d32 641a a730 a3ae 9c2d 10a9 a12c
000000a0: 22aa a6aa 1bab 04a9 3ea8 0ba8 c125 2b2a
000000b0: b82a c1ae c2a3 5328 eaaf 75aa e323 e526
000000c0: 212c 8427 052f 76ab afb0 261c 3330 d42f
000000d0: 4021 f8ae dcab ed28 2baa 2598 66ac 21b3
000000e0: 642c 3699 ada2 c829 a8a6 3f18 402b b025
000000f0: 6f2c 96a0 149f 6da9 9aa9 f1ae b2a5 d2ab
00000100: b424 c02d ed97 ea30 6b2e b3ad baab f330
00000110: 2b33 09ab 7a2f 5aa6 2029 0429 382e e0b1
00000120: 88ab 3532 a19c ae26 f3ab c3b0 8c2d d82c
00000130: d5aa 2332 c82e a8a8 5626 3daf f99f 9caa
00000140: 69ac 9e1c 17a1 c32c ff2c 222d 56aa f62f
00000150: bbad 1a1c 22a7 f1a8 d924 39b0 8b28 19a8
00000160: baad aaae 4cb0 5eb0 cfab 5d2c feaa 0928
00000170: 67af 59a5 062c 822b 09ac cca3 67a9 17b0
00000180: cb28 5ca3 b72b 66ad 791c 66ac 0028 3b33
00000190: 1e25 382d a22c 822d 82a7 9921 adac 6928
000001a0: 522e 7b28 4e9f fe2c 4fa8 d49c c331 6da8
000001b0: b829 ca21 bcb1 9f96 39af 3fa5 261d ee31
000001c0: f32d bd2f bcad 35a9 311b dbb0 b225 e627
000001d0: 81a2 6dac 5424 992d 5830 7e28 1f24 e2aa
000001e0: 5db0 afaa 8f30 4128 e5a9 0c20 08ae 83a1
000001f0: 46a0 1fac 51a7 ee21 4922 15ad c62c 28b1
0.02701 0.2015 -0.014046 0.0781 -0.1746 0.0588 -0.05856 -0.07495
0.04675 -0.10925 -0.1472 -0.02647 -0.006584 0.01956 -0.1001 0.1708
-0.06415 0.06235 0.07367 -0.003805 0.1335 -0.0468 -0.02264 0.1346
-0.02812 -0.10535 0.2128 -0.0633 0.01408 -0.1106 -0.1649 -0.1445
0.07526 0.1284 0.05698 0.03653 -0.1451 0.05313 0.149 -0.06335
0.08234 0.00424 0.005424 -0.01535 0.02805 -0.0537 -0.0992 0.006023
-0.03247 -0.05054 -0.08246 0.03333 0.01274 -0.01904 0.09094 -0.12335
-0.033 -0.0595 0.03845 -0.05103 0.11053 -0.07544 0.02235 -0.03928
0.1012 -0.0983 0.05264 -0.11487 -0.03305 0.04816 0.01138 0.02663
0.03073 0.2067 0.00312 0.1454 -0.1037 0.08765 -0.03955 0.0723
-0.0479 -0.05194 -0.0555 -0.03918 -0.03314 -0.0316 0.02248 0.0482
0.0525 -0.1055 -0.01515 0.03378 -0.12366 -0.05045 0.0154 0.02693
0.0645 0.02936 0.1097 -0.0583 -0.1464 0.00405 0.1312 0.1223
0.010254 -0.1089 -0.0614 0.03848 -0.0482 -0.002024 -0.0687 -0.2228
0.0686 -0.002544 -0.01304 0.04517 -0.026 0.002073 0.05664 0.02222
0.0693 -0.00896 -0.006912 -0.0424 -0.04376 -0.10846 -0.02225 -0.0611
0.01837 0.08984 -0.001935 0.1536 0.1003 -0.08905 -0.06036 0.1547
0.224 -0.05496 0.1168 -0.02481 0.04004 0.03918 0.09717 -0.1836
-0.05884 0.194 -0.00452 0.0261 -0.0621 -0.1488 0.0867 0.0757
-0.05338 0.1918 0.10596 -0.03638 0.02475 -0.1131 -0.007786 -0.05164
-0.0689 0.00451 -0.00994 0.0744 0.07806 0.0802 -0.0495 0.1244
-0.08954 0.004005 -0.02786 -0.0386 0.01894 -0.132 0.0355 -0.032
-0.0895 -0.1041 -0.1343 -0.1365 -0.061 0.0682 -0.05463 0.03152
-0.11566 -0.02089 0.06287 0.05865 -0.06305 -0.01523 -0.0422 -0.1278
0.03745 -0.01437 0.06027 -0.08435 0.004368 -0.0687 0.03125 0.226
0.01999 0.08154 0.0724 0.08606 -0.02933 0.01093 -0.07306 0.03445
0.09875 0.035 -0.007133 0.078 -0.03366 -0.004715 0.18 -0.03458
0.04468 0.01131 -0.1792 -0.0016165 -0.11285 -0.0205 0.005028 0.1853
0.09296 0.1209 -0.0896 -0.04068 0.003511 -0.1517 0.02225 0.03085
-0.0127 -0.06915 0.0169 0.08746 0.1357 0.0351 0.0161 -0.05377
-0.1364 -0.05222 0.1425 0.03323 -0.04605 0.007904 -0.09424 -0.010765
-0.00835 -0.0644 -0.02858 0.01158 0.012276 -0.0794 0.0746 -0.1611

conv1.bias f2 [64]
00000000: a807 7620 e502 41a5 5798 8b20 79a5 b820
00000010: f016 0124 a599 c31c da98 9d20 27a1 5da6
00000020: 8e93 8c19 e721 c490 a6aa 9627 f39c f88e
00000030: 449a c9ac 031f 3314 5522 381c 020e aaa5
00000040: ddab 58ac fb0f f499 e213 8828 0f20 b31d
00000050: 9aa0 9d1e 93a2 ae20 b595 8d0f 122c e5a1
00000060: 109a 5e10 6920 2da9 fd21 4399 6121 ed95
00000070: 408e 4fa8 8609 d3a2 8b21 42a3 a518 6220
0.0001168 0.00871 4.417e-05 -0.02052 -0.00212 0.00887 -0.02138 0.00922
0.001694 0.01564 -0.002756 0.00465 -0.002369 0.00901 -0.01006 -0.02486
-0.000922 0.002708 0.01153 -0.0005817 -0.05194 0.02963 -0.004833 -0.0004253
-0.00306 -0.07477 0.006847 0.001025 0.01237 0.00412 0.0003667 -0.02213
-0.06143 -0.0679 0.000487 -0.002907 0.0009623 0.0354 0.00793 0.005566
-0.00899 0.00646 -0.01284 0.00914 -0.001393 0.0004609 0.0636 -0.01151
-0.00296 0.000533 0.00861 -0.04044 0.011696 -0.00257 0.010506 -0.001447
-0.0003815 -0.03366 0.0001686 -0.01333 0.010826 -0.014175 0.002268 0.00856

conv2.weight f2 [32, 64, 5, 5]
00000000: 6e22 f123 df9e 5126 6c14 bda7 c422 8826
00000010: 7f25 37a8 a9a1 b7a8 46a1 11ac caa6 e997
00000020: bea6 99a1 9ca0 91a7 3aa9 0f99 1ba8 f7a3
00000030: 1027 aea1 2faa a5aa 6026 e428 48aa 8ba8
00000040: c29f 9c26 23a1 8ea9 069d d8a2 fb24 6227
00000050: 9e2c 7120 981c 7ba7 6827 22a9 ad20 8026
00000060: 6314 d7a7 4221 00aa c72b d5ab 522a 14aa
00000070: b420 cf24 7427 cfa1 4227 a927 fa8c c921
00000080: 1a29 d60f e924 d11e f6a3 ee93 96a5 952c
00000090: 72a2 83a8 f2a8 93ab 321d c026 5c29 592f
000000a0: cc1e 4aa5 e9a7 3c21 b12e 43a8 3ba9 48a7
000000b0: 3bab 222c cc22 0297 c3a9 fa83 9aac 3b2c
000000c0: 2720 fc2e 6233 2fa8 0e99 0129 2ca8 8d27
000000d0: 2aa1 8a1c 762a bd2c c2a8 dfa6 142a 4425
000000e0: ddab 73ac 7926 b91d a61d 13a0 47ab 74a8
000000f0: 45a8 11ac e017 142a 55a8 3623 1a2f e429
00000100: d99e cf25 1026 592d 2018 9f26 49ac cfa4
00000110: 1125 cfa4 64a7 0c25 31a7 ca1f 2baa 8c2b
00000120: 9ca2 7799 6ba9 162b 3baa c01e 5a19 392d
00000130: 2224 3f30 362c aaa5 0d2b 3f2d 2da9 40ad
00000140: 89a9 151c 20ad dea0 67a8 542c faac afad
00000150: c722 162c 4024 109c ecac 64ae 67aa 5a9b
00000160: ba27 8b2c 832c 1224 1bad e424 d71d bea8
00000170: 3327 36a4 1529 0e28 8c2a f81d a4aa a22c
00000180: 6b20 5ea5 f6a5 9aa8 652a 31aa 7125 0fa0
00000190: 5222 1e15 a727 c0a8 fe22 0124 4724 8198
000001a0: 9926 1a21 8a26 fb1b 15a2 781b 33ab 81a8
000001b0: ba9a f124 cea1 c3a0 b628 7522 6228 9c9a
000001c0: b31c 8a9c 7ea1 b2a8 4428 5b2a 8e18 91ac
000001d0: 7aac 10a4 6528 28a6 eb28 f895 9322 f125
000001e0: 9e25 a429 78a5 c8a5 d429 0819 baaa 5f29
000001f0: 18a5 8a94 b725 9026 9028 e597 cfa5 9da0
0.01256 0.01551 -0.00671 0.02467 0.00108 -0.03023 0.013214 0.02551
0.02147 -0.03293 -0.011055 -0.03683 -0.0103 -0.06354 -0.02652 -0.001931
-0.02634 -0.01093 -0.009 -0.02956 -0.04083 -0.00247 -0.03207 -0.01556
0.02759 -0.01109 -0.0483 -0.0519 0.0249 0.0382 -0.04907 -0.0355
-0.007576 0.02582 -0.01003 -0.0434 -0.004906 -0.01337 0.01945 0.02884
0.07214 0.008675 0.004486 -0.02922 0.02893 -0.0401 0.00913 0.02539
0.001071 -0.03062 0.01027 -0.04688 0.06076 -0.0612 0.04938 -0.0475
0.009186 0.01878 0.02911 -0.011345 0.02835 0.02992 -0.0003037 0.0113
0.03986 0.0004783 0.01918 0.006657 -0.01555 -0.000968 -0.02182 0.0716
-0.01259 -0.03525 -0.03864 -0.05917 0.005074 0.02637 0.04187 0.1148
0.006638 -0.02066 -0.0309 0.01022 0.10455 -0.0333 -0.04086 -0.02844
-0.0565 0.0646 0.013275 -0.001711 -0.045 -6.07e-05 -0.0719 0.0661
0.00811 0.10913 0.2307 -0.03268 -0.002468 0.0391 -0.0326 0.0295
-0.010086 0.004433 0.05048 0.07404 -0.03717 -0.02684 0.0475 0.02057
-0.06143 -0.0695 0.02528 0.00559 0.005516 -0.00796 -0.05685 -0.0348
-0.03336 -0.06354 0.001923 0.0475 -0.03384 0.014084 0.11096 0.04602
-0.006687 0.02269 0.02368 0.08356 0.002014 0.02586 -0.06696 -0.01878
0.01979 -0.01878 -0.02887 0.01971 -0.02809 0.007607 -0.0482 0.05896
-0.01291 -0.002668 -0.04233 0.05536 -0.04868 0.00659 0.002613 0.0816
0.01614 0.1327 0.0658 -0.02213 0.05508 0.082 -0.04044 -0.08203
-0.04324 0.003986 -0.0801 -0.00951 -0.0344 0.0676 -0.07776 -0.0888
0.01324 0.06384 0.0166 -0.003967 -0.0769 -0.09985 -0.05002 -0.00359
0.03018 0.071 0.0705 0.0159 -0.0798 0.0191 0.005703 -0.03705
0.02812 -0.01645 0.0397 0.03168 0.05115 0.00583 -0.05188 0.0724
0.00863 -0.02097 -0.02328 -0.03595 0.04996 -0.04837 0.02126 -0.00793
0.012344 0.001249 0.02989 -0.0371 0.01366 0.01564 0.01671 -0.0022
0.02577 0.009964 0.02554 0.003897 -0.01188 0.003647 -0.05624 -0.0352
-0.003284 0.0193 -0.01134 -0.0093 0.0368 0.01261 0.03424 -0.003227
0.00459 -0.004433 -0.01073 -0.03668 0.03333 0.04965 0.002224 -0.07135
-0.06995 -0.01587 0.03433 -0.02405 0.03842 -0.001457 0.01284 0.02321
0.02194 0.04407 -0.02136 -0.02258 0.04553 0.002457 -0.05255 0.04196
-0.0199 -0.001108 0.02232 0.02563 0.03564 -0.001927 -0.02269 -0.00901

conv2.bias f2 [32]
00000000: ba99 6da4 9918 6a9f c59f 659a 5b16 1316
00000010: 5a17 3f87 5b94 be9e a419 c897 9597 7b12
00000020: b714 650a e51b f421 f620 3e1c 1425 a51b
00000030: a694 c120 81a0 0498 4329 971f 222b 4194
-0.002796 -0.01729 0.002245 -0.00724 -0.007587 -0.003122 0.001552 0.001483
0.001795 -0.00011057 -0.001063 -0.006584 0.002754 -0.0019 -0.001851 0.000791
0.001151 0.0001951 0.003855 0.01163 0.00969 0.004143 0.01984 0.003733
-0.001135 0.009285 -0.0088 -0.00196 0.0411 0.007412 0.05573 -0.001039

conv3.weight f2 [3, 32, 5, 5]
00000000: 5726 de29 ea19 07b0 b720 4725 d114 70ab
00000010: 6ba6 81a4 1a29 6d2b c22b 872d 4c17 efa4
00000020: 32aa ab27 ed2c bdac 5eaa 9aa6 861c efa8
00000030: 9393 b5a1 442d b524 e723 9a28 1a25 dc9c
00000040: d12c 5d2c 4fad e9a2 e1a2 6025 6522 2325
00000050: 79a6 dea2 fd1c 6928 caa9 27a3 00ae 9912
00000060: 81a3 64a1 c7a2 b624 402a 29ac 83aa 24a4
00000070: b22d 13ac e227 d5a8 daa6 90a0 20a9 02a7
00000080: 6129 f2ac 6523 292d 7aa4 0aaa 29a3 3229
00000090: 9225 1ea5 362c 35a1 aaae e5ae b618 b99c
000000a0: fd9f fda8 f7a8 10a5 292c 9e26 53a2 1f9b
000000b0: d62b ec27 fe24 c724 3a29 d624 a52c b618
000000c0: 7fa3 48a4 5f26 05a5 fc2a 73ac 18a5 f826
000000d0: 1fa1 b128 6528 f81b bf22 4421 2129 112d
000000e0: ab1c bb27 c32b 349d 61ad 3d28 9629 c324
000000f0: 172d 3da5 3725 ff9a 45a0 8093 dba5 52ac
00000100: 3c9d 2a91 67a8 1327 a093 ada6 ab93 91a5
00000110: 9521 b51f f122 3e9e 4828 8a23 1ba8 a2a0
00000120: 60a4 caab 63a1 56a8 1726 aead 2ba8 832d
00000130: 062f 919b 7628 fba5 9fa7 ae98 49a4 be2d
00000140: 33ab 7baa f2ae 9129 5ba7 dcab 1f2f 54ac
00000150: ab24 03a5 0ca5 f820 0a22 77a6 3fa3 66aa
00000160: f6a8 cc28 8e22 652c f528 7eaf be27 21a1
00000170: f426 6da2 2b2b 6495 67ab 0ca9 0a29 66a5
00000180: 28ac ca21 2b23 172c 78af 5f9d 4628 edaa
00000190: faaa 159c c72c 542a 2d29 1d2c c51a 0c2b
000001a0: 3926 d5a9 1528 222a 93af e9aa 4125 7b25
000001b0: 6621 522b e02b ab2c fca8 5729 ad2b 94ac
000001c0: fe16 a7a0 1ba8 4020 afa5 2299 fb21 6e27
000001d0: 28a8 5fac 312d 1c29 9827 f82a 762a f627
000001e0: 80a8 c027 0c29 41a7 32ac b927 94a1 4c2a
000001f0: fc24 0222 262a 31ae 4fa9 5ea8 a697 c6a0
0.02477 0.04584 0.002888 -0.1259 0.00921 0.02061 0.001176 -0.0581
-0.02507 -0.0176 0.03986 0.058 0.0606 0.08636 0.001781 -0.01927
-0.0484 0.02995 0.07697 -0.07404 -0.04974 -0.02579 0.004417 -0.03854
-0.0009246 -0.01115 0.0823 0.01839 0.015434 0.03595 0.01993 -0.004745
0.07526 0.0682 -0.08295 -0.0135 -0.013435 0.021 0.01249 0.02007
-0.02528 -0.01341 0.00487 0.03445 -0.04523 -0.01397 -0.09375 0.0008054
-0.014656 -0.01053 -0.01324 0.0184 0.04883 -0.065 -0.05087 -0.01617
0.089 -0.06366 0.03079 -0.03775 -0.02676 -0.00891 -0.04004 -0.02737
0.04202 -0.0773 0.01444 0.0806 -0.01749 -0.04718 -0.013985 0.0406
0.02176 -0.01999 0.0658 -0.01017 -0.1041 -0.1077 0.0023 -0.004612
-0.0078 -0.03897 -0.0388 -0.01978 0.065 0.02585 -0.01235 -0.003477
0.06122 0.03094 0.0195 0.01866 0.04083 0.01889 0.0726 0.0023
-0.01464 -0.01672 0.02489 -0.0196 0.05457 -0.0695 -0.0199 0.02722
-0.01 0.03665 0.03433 0.003891 0.013176 0.010284 0.04007 0.07916
0.00456 0.0302 0.06064 -0.00508 -0.08405 0.0331 0.04364 0.0186
0.0795 -0.02046 0.02037 -0.003416 -0.00834 -0.0009155 -0.02287 -0.0675
-0.00511 -0.0006304 -0.0344 0.02763 -0.000931 -0.02608 -0.000936 -0.02174
0.0109 0.007526 0.01356 -0.006096 0.03345 0.014725 -0.03207 -0.00905
-0.01709 -0.06085 -0.01052 -0.03387 0.02379 -0.08875 -0.03256 0.0861
0.10974 -0.003695 0.03485 -0.02336 -0.02977 -0.002285 -0.01674 0.0897
-0.05624 -0.05063 -0.1085 0.0435 -0.02873 -0.0614 0.11127 -0.0676
0.01823 -0.01958 -0.01971 0.009705 0.011795 -0.02525 -0.01415 -0.05
-0.03876 0.03748 0.0128 0.06866 0.03873 -0.11707 0.03024 -0.01002
0.02716 -0.01255 0.056 -0.001316 -0.05783 -0.03943 0.03937 -0.02109
-0.06494 0.01131 0.014 0.0639 -0.1167 -0.005245 0.0334 -0.0541
-0.0545 -0.003986 0.07465 0.04944 0.04044 0.0643 0.003305 0.05505
0.0243 -0.04556 0.0319 0.0479 -0.11835 -0.054 0.02052 0.02141
0.010544 0.0572 0.06152 0.07294 -0.03894 0.04172 0.05997 -0.07153
0.001707 -0.00909 -0.03207 0.0083 -0.0222 -0.002506 0.01168 0.02902
-0.03247 -0.0683 0.0811 0.03992 0.02966 0.05444 0.05048 0.0311
-0.03516 0.03027 0.03943 -0.02834 -0.06555 0.03017 -0.010895 0.0492
0.01947 0.011734 0.04803 -0.09674 -0.04147 -0.03412 -0.001867 -0.00932
